…
I trained with MNIST 28x28px images, the inference should be with a much bigger resolution. Like 1080x1920 or maybe 720x1280. So I just initialized my placeholders for the training with None, to feed a bigger image during inference. To illustrate the inference and training shapes, I just give you the summary() for my input shapes, but remember I train it with (None,None,1)!

    For Inference:
    _________________________________________________________________
    Layer (type)                 Output Shape              Param #   
    =================================================================
    conv1 (Conv2D)               (None, 1920, 1080, 32)    320       
    _________________________________________________________________
    batch_normalization_243 (Bat (None, 1920, 1080, 32)    128       
    _________________________________________________________________
    leaky_re_lu_243 (LeakyReLU)  (None, 1920, 1080, 32)    0         
    _________________________________________________________________
    max_pooling2d_237 (MaxPoolin (None, 960, 540, 32)      0         
    _________________________________________________________________
    conv2 (Conv2D)               (None, 960, 540, 64)      18496     
    _________________________________________________________________
    batch_normalization_244 (Bat (None, 960, 540, 64)      256       
    _________________________________________________________________
    leaky_re_lu_244 (LeakyReLU)  (None, 960, 540, 64)      0         
    _________________________________________________________________
    max_pooling2d_238 (MaxPoolin (None, 480, 270, 64)      0         
    _________________________________________________________________
    conv3 (Conv2D)               (None, 480, 270, 128)     73856     
    _________________________________________________________________
    batch_normalization_245 (Bat (None, 480, 270, 128)     512       
    _________________________________________________________________
    leaky_re_lu_245 (LeakyReLU)  (None, 480, 270, 128)     0         
    _________________________________________________________________
    max_pooling2d_239 (MaxPoolin (None, 240, 135, 128)     0         
    _________________________________________________________________
    conv4 (Conv2D)               (None, 240, 135, 64)      73792     
    _________________________________________________________________
    batch_normalization_246 (Bat (None, 240, 135, 64)      256       
    _________________________________________________________________
    leaky_re_lu_246 (LeakyReLU)  (None, 240, 135, 64)      0         
    _________________________________________________________________
    max_pooling2d_240 (MaxPoolin (None, 120, 68, 64)       0         
    _________________________________________________________________
    conv5 (Conv2D)               (None, 119, 67, 10)       2570      
    =================================================================
    Total params: 170,186
    Trainable params: 169,610
    Non-trainable params: 576
    _________________________________________________________________
    For training:
    _________________________________________________________________
    Layer (type)                 Output Shape              Param #   
    =================================================================
    conv1 (Conv2D)               (None, 28, 28, 32)        320       
    _________________________________________________________________
    batch_normalization_247 (Bat (None, 28, 28, 32)        128       
    _________________________________________________________________
    leaky_re_lu_247 (LeakyReLU)  (None, 28, 28, 32)        0         
    _________________________________________________________________
    max_pooling2d_241 (MaxPoolin (None, 14, 14, 32)        0         
    _________________________________________________________________
    conv2 (Conv2D)               (None, 14, 14, 64)        18496     
    _________________________________________________________________
    batch_normalization_248 (Bat (None, 14, 14, 64)        256       
    _________________________________________________________________
    leaky_re_lu_248 (LeakyReLU)  (None, 14, 14, 64)        0         
    _________________________________________________________________
    max_pooling2d_242 (MaxPoolin (None, 7, 7, 64)          0         
    _________________________________________________________________
    conv3 (Conv2D)               (None, 7, 7, 128)         73856     
    _________________________________________________________________
    batch_normalization_249 (Bat (None, 7, 7, 128)         512       
    _________________________________________________________________
    leaky_re_lu_249 (LeakyReLU)  (None, 7, 7, 128)         0         
    _________________________________________________________________
    max_pooling2d_243 (MaxPoolin (None, 4, 4, 128)         0         
    _________________________________________________________________
    conv4 (Conv2D)               (None, 4, 4, 64)          73792     
    _________________________________________________________________
    batch_normalization_250 (Bat (None, 4, 4, 64)          256       
    _________________________________________________________________
    leaky_re_lu_250 (LeakyReLU)  (None, 4, 4, 64)          0         
    _________________________________________________________________
    max_pooling2d_244 (MaxPoolin (None, 2, 2, 64)          0         
    _________________________________________________________________
    conv5 (Conv2D)               (None, 1, 1, 10)          2570      
    =================================================================
    Total params: 170,186
    Trainable params: 169,610
    Non-trainable params: 576
    _________________________________________________________________

So my output for a FullHD image is 67x119x11. I also added a image pyramid to detect sequences at different scales. For now my detection results are not that good.

[convolved result image](https://preview.redd.it/6zk9omzijgm41.png?width=1920&format=png&auto=webp&s=3e64183e5cb639aec5e04e2ea80019d1c313ca7a)
…
What is appropriate layer for using Grad-CAM with MobileNet and ResNet50?,2,f3as8o,https://www.reddit.com/r/MLQuestions/comments/f3as8o/what_is_appropriate_layer_for_using_gradcam_with/,0,1581633075.0,"From the grad cam paper, the authors suggest to use it with the last convolutional layer of the network e.g. in VGG16 you would use block 5 convolution 3, which is the last convolutional layer before max pooling in the base network.  


With MobileNet and ResNet its not so clear to me which is really the last convolutional layer. MobileNet for example has depthwise and pointwise convolutions. 

  
conv\_dw\_13 (DepthwiseConv2D) (None, 7, 7, 1024)        9216      

conv\_dw\_13\_bn (BatchNormaliz (None, 7, 7, 1024)        4096      

conv\_dw\_13\_relu (ReLU)       (None, 7, 7, 1024)        0         

conv\_pw\_13 (Conv2D)          (None, 7, 7, 1024)        1048576   

conv\_pw\_13\_bn (BatchNormaliz (None, 7, 7, 1024)        4096      

conv\_pw\_13\_relu (ReLU)       (None, 7, 7, 1024)        0          


 

I'm using tf.Keras and I'm not too sure which one would be more ""correct"":  
 conv\_dw\_13,   
conv\_pw\_13,   
or the output at conv\_pw\_13\_relu which is the last layer of the base of the network.  


Thanks for any suggestions",2020-02-14 04:01:15
What's the current state-of-the-art in Paraphrase Generation?,1,f3due5,/r/learnmachinelearning/comments/f3du6o/whats_the_current_stateoftheart_in_paraphrase/,0,1581645459.0,,2020-02-14 07:27:39
…
